…
/decode_asr_lm_lm_train_lm_char_valid.loss.ave_asr_model_valid.acc.best/eval1/logdir/output.10 --config conf/decode_asr.yaml --lm_train_config exp/lm_train_lm_char/config.yaml --lm_file exp/lm_train_lm_char/valid.loss.ave.pth
2020-09-16 11:51:07,297 (asr:281) INFO: Vocabulary size: 3262
2020-09-16 11:51:11,029 (lm:198) INFO: Vocabulary size: 3262
2020-09-16 11:51:11,260 (asr_inference:119) INFO: BatchBeamSearch implementation is selected.
2020-09-16 11:51:11,265 (asr_inference:129) INFO: Beam_search: BatchBeamSearch(
(nn_dict): ModuleDict(
(decoder): TransformerDecoder(
(embed): Sequential(
(0): Embedding(3262, 512)
(1): PositionalEncoding(
(dropout): Dropout(p=0.1, inplace=False)
)
)
(after_norm): LayerNorm((512,), eps=1e-12, elementwise_affine=True)
(output_layer): Linear(in_features=512, out_features=3262, bias=True)
(decoders): MultiSequential(
(0): DecoderLayer(
(self_attn): MultiHeadedAttention(
(linear_q): Linear(in_features=512, out_features=512, bias=True)
(linear_k): Linear(in_features=512, out_features=512, bias=True)
(linear_v): Linear(in_features=512, out_features=512, bias=True)
(linear_out): Linear(in_features=512, out_features=512, bias=True)
(dropout): Dropout(p=0.1, inplace=False)
)
(src_attn): MultiHeadedAttention(
(linear_q): Linear(in_features=512, out_features=512, bias=True)
(linear_k): Linear(in_features=512, out_features=512, bias=True)
(linear_v): Linear(in_features=512, out_features=512, bias=True)
(linear_out): Linear(in_features=512, out_features=512, bias=True)
(dropout): Dropout(p=0.1, inplace=False)
)
(feed_forward): PositionwiseFeedForward(
(w_1): Linear(in_features=512, out_features=2048, bias=True)
(w_2): Linear(in_features=2048, out_features=512, bias=True)
(dropout): Dropout(p=0.1, inplace=False)
(activation): ReLU()
)
(norm1): LayerNorm((512,), eps=1e-12, elementwise_affine=True)
(norm2): LayerNorm((512,), eps=1e-12, elementwise_affine=True)
(norm3): LayerNorm((512,), eps=1e-12, elementwise_affine=True)
(dropout): Dropout(p=0.1, inplace=False)
)
(1): DecoderLayer(
(self_attn): MultiHeadedAttention(
(linear_q): Linear(in_features=512, out_features=512, bias=True)
(linear_k): Linear(in_features=512, out_features=512, bias=True)
(linear_v): Linear(in_features=512, out_features=512, bias=True)
(linear_out): Linear(in_features=512, out_features=512, bias=True)
(dropout): Dropout(p=0.1, inplace=False)
)
(src_attn): MultiHeadedAttention(
(linear_q): Linear(in_features=512, out_features=512, bias=True)
(linear_k): Linear(in_features=512, out_features=512, bias=True)
(linear_v): Linear(in_features=512, out_features=512, bias=True)
(linear_out): Linear(in_features=512, out_features=512, bias=True)
(dropout): Dropout(p=0.1, inplace=False)
)
(feed_forward): PositionwiseFeedForward(
(w_1): Linear(in_features=512, out_features=2048, bias=True)
(w_2): Linear(in_features=2048, out_features=512, bias=True)
(dropout): Dropout(p=0.1, inplace=False)
(activation): ReLU()
)
(norm1): LayerNorm((512,), eps=1e-12, elementwise_affine=True)
(norm2): LayerNorm((512,), eps=1e-12, elementwise_affine=True)
(norm3): LayerNorm((512,), eps=1e-12, elementwise_affine=True)
(dropout): Dropout(p=0.1, inplace=False)
)
(2): DecoderLayer(
(self_attn): MultiHeadedAttention(
(linear_q): Linear(in_features=512, out_features=512, bias=True)
(linear_k): Linear(in_features=512, out_features=512, bias=True)
(linear_v): Linear(in_features=512, out_features=512, bias=True)
(linear_out): Linear(in_features=512, out_features=512, bias=True)
(dropout): Dropout(p=0.1, inplace=False)
)
(src_attn): MultiHeadedAttention(
(linear_q): Linear(in_features=512, out_features=512, bias=True)
(linear_k): Linear(in_features=512, out_features=512, bias=True)
(linear_v): Linear(in_features=512, out_features=512, bias=True)
(linear_out): Linear(in_features=512, out_features=512, bias=True)
(dropout): Dropout(p=0.1, inplace=False)
)
(feed_forward): PositionwiseFeedForward(
(w_1): Linear(in_features=512, out_features=2048, bias=True)
(w_2): Linear(in_features=2048, out_features=512, bias=True)
(dropout): Dropout(p=0.1, inplace=False)
(activation): ReLU()
)
(norm1): LayerNorm((512,), eps=1e-12, elementwise_affine=True)
(norm2): LayerNorm((512,), eps=1e-12, elementwise_affine=True)
(norm3): LayerNorm((512,), eps=1e-12, elementwise_affine=True)
(dropout): Dropout(p=0.1, inplace=False)
)
(3): DecoderLayer(
(self_attn): MultiHeadedAttention(
(linear_q): Linear(in_features=512, out_features=512, bias=True)
(linear_k): Linear(in_features=512, out_features=512, bias=True)
(linear_v): Linear(in_features=512, out_features=512, bias=True)
(linear_out): Linear(in_features=512, out_features=512, bias=True)
(dropout): Dropout(p=0.1, inplace=False)
)
(src_attn): MultiHeadedAttention(
(linear_q): Linear(in_features=512, out_features=512, bias=True)
(linear_k): Linear(in_features=512, out_features=512, bias=True)
(linear_v): Linear(in_features=512, out_features=512, bias=True)
(linear_out): Linear(in_features=512, out_features=512, bias=True)
(dropout): Dropout(p=0.1, inplace=False)
)
(feed_forward): PositionwiseFeedForward(
(w_1): Linear(in_features=512, out_features=2048, bias=True)
(w_2): Linear(in_features=2048, out_features=512, bias=True)
(dropout): Dropout(p=0.1, inplace=False)
(activation): ReLU()
)
(norm1): LayerNorm((512,), eps=1e-12, elementwise_affine=True)
(norm2): LayerNorm((512,), eps=1e-12, elementwise_affine=True)
(norm3): LayerNorm((512,), eps=1e-12, elementwise_affine=True)
(dropout): Dropout(p=0.1, inplace=False)
)
(4): DecoderLayer(
(self_attn): MultiHeadedAttention(
(linear_q): Linear(in_features=512, out_features=512, bias=True)
(linear_k): Linear(in_features=512, out_features=512, bias=True)
(linear_v): Linear(in_features=512, out_features=512, bias=True)
(linear_out): Linear(in_features=512, out_features=512, bias=True)
(dropout): Dropout(p=0.1, inplace=False)
)
(src_attn): MultiHeadedAttention(
(linear_q): Linear(in_features=512, out_features=512, bias=True)
(linear_k): Linear(in_features=512, out_features=512, bias=True)
(linear_v): Linear(in_features=512, out_features=512, bias=True)
(linear_out): Linear(in_features=512, out_features=512, bias=True)
(dropout): Dropout(p=0.1, inplace=False)
)
(feed_forward): PositionwiseFeedForward(
(w_1): Linear(in_features=512, out_features=2048, bias=True)
(w_2): Linear(in_features=2048, out_features=512, bias=True)
(dropout): Dropout(p=0.1, inplace=False)
(activation): ReLU()
)
(norm1): LayerNorm((512,), eps=1e-12, elementwise_affine=True)
(norm2): LayerNorm((512,), eps=1e-12, elementwise_affine=True)
(norm3): LayerNorm((512,), eps=1e-12, elementwise_affine=True)
(dropout): Dropout(p=0.1, inplace=False)
)
(5): DecoderLayer(
(self_attn): MultiHeadedAttention(
(linear_q): Linear(in_features=512, out_features=512, bias=True)
(linear_k): Linear(in_features=512, out_features=512, bias=True)
(linear_v): Linear(in_features=512, out_features=512, bias=True)
(linear_out): Linear(in_features=512, out_features=512, bias=True)
(dropout): Dropout(p=0.1, inplace=False)
)
(src_attn): MultiHeadedAttention(
(linear_q): Linear(in_features=512, out_features=512, bias=True)
(linear_k): Linear(in_features=512, out_features=512, bias=True)
(linear_v): Linear(in_features=512, out_features=512, bias=True)
(linear_out): Linear(in_features=512, out_features=512, bias=True)
(dropout): Dropout(p=0.1, inplace=False)
)
(feed_forward): PositionwiseFeedForward(
(w_1): Linear(in_features=512, out_features=2048, bias=True)
(w_2): Linear(in_features=2048, out_features=512, bias=True)
(dropout): Dropout(p=0.1, inplace=False)
(activation): ReLU()
)
(norm1): LayerNorm((512,), eps=1e-12, elementwise_affine=True)
(norm2): LayerNorm((512,), eps=1e-12, elementwise_affine=True)
(norm3): LayerNorm((512,), eps=1e-12, elementwise_affine=True)
(dropout): Dropout(p=0.1, inplace=False)
)
)
)
(lm): SequentialRNNLM(
(drop): Dropout(p=0.0, inplace=False)
(encoder): Embedding(3262, 650, padding_idx=0)
(rnn): LSTM(650, 650, num_layers=2, batch_first=True)
(decoder): Linear(in_features=650, out_features=3262, bias=True)
)
)
)
2020-09-16 11:51:11,265 (asr_inference:130) INFO: Decoding device=cpu, dtype=float32
2020-09-16 11:51:11,322 (asr_inference:148) INFO: Text tokenizer: CharTokenizer(space_symbol=""<space>""non_linguistic_symbols=""set()"")
2020-09-16 11:51:13,432 (beam_search:358) INFO: decoder input length: 156
2020-09-16 11:51:13,433 (beam_search:359) INFO: max output length: 156
…
